…
weighted avg       0.78      0.77      0.77      3100




visual transformer 9 model = VisionTransformer(image_size=32, in_channels=4, num_classes=4, hidden_dims=[16, 16], dropout_rate=0.6)
epoch 40, lr 0.0001




transform = A.Compose([
    A.OneOf([
        A.HorizontalFlip(),
        A.VerticalFlip(),
    ], p=0.8),
    A.Rotate(limit=90, p=0.5),
    A.Resize(32, 32)
])




resnet1 

model = resnet18()
model.conv1 = nn.Conv2d(4, 64, kernel_size=(7, 7), stride=(2, 2), padding=(3, 3), bias=False)

num_classes = 4
model.fc = nn.Linear(model.fc.in_features, num_classes)
batch_size = 16


ResNet(
  (conv1): Conv2d(4, 64, kernel_size=(7, 7), stride=(2, 2), padding=(3, 3), bias=False)
  (bn1): BatchNorm2d(64, eps=1e-05, momentum=0.1, affine=True, track_running_stats=True)
  (relu): ReLU(inplace=True)
  (maxpool): MaxPool2d(kernel_size=3, stride=2, padding=1, dilation=1, ceil_mode=False)
  (layer1): Sequential(
    (0): BasicBlock(
      (conv1): Conv2d(64, 64, kernel_size=(3, 3), stride=(1, 1), padding=(1, 1), bias=False)
      (bn1): BatchNorm2d(64, eps=1e-05, momentum=0.1, affine=True, track_running_stats=True)
      (relu): ReLU(inplace=True)
      (conv2): Conv2d(64, 64, kernel_size=(3, 3), stride=(1, 1), padding=(1, 1), bias=False)
      (bn2): BatchNorm2d(64, eps=1e-05, momentum=0.1, affine=True, track_running_stats=True)
    )
    (1): BasicBlock(
      (conv1): Conv2d(64, 64, kernel_size=(3, 3), stride=(1, 1), padding=(1, 1), bias=False)
      (bn1): BatchNorm2d(64, eps=1e-05, momentum=0.1, affine=True, track_running_stats=True)
      (relu): ReLU(inplace=True)
      (conv2): Conv2d(64, 64, kernel_size=(3, 3), stride=(1, 1), padding=(1, 1), bias=False)
      (bn2): BatchNorm2d(64, eps=1e-05, momentum=0.1, affine=True, track_running_stats=True)
    )
  )
  (layer2): Sequential(
    (0): BasicBlock(
      (conv1): Conv2d(64, 128, kernel_size=(3, 3), stride=(2, 2), padding=(1, 1), bias=False)
      (bn1): BatchNorm2d(128, eps=1e-05, momentum=0.1, affine=True, track_running_stats=True)
...
    )
  )
  (avgpool): AdaptiveAvgPool2d(output_size=(1, 1))
  (fc): Linear(in_features=512, out_features=4, bias=True)
)

                                                                                    batch = 64, 30 epochs, (32,32)

[[869  92   7  32]
 [123 747  10 120]
 [ 17  15  61   7]
 [ 88 231   6 675]]
              precision    recall  f1-score   support

           0       0.79      0.87      0.83      1000
           1       0.69      0.75      0.72      1000
…
